proprietary/odm/firmware/water_check.tflite (tflite, 15276 bytes, 18 tensors)

mul_2 f4 [1, 3]
000000 0a d7 23 3c b7 28 03 3f 0a d7 23 3c
       0.01 0.51234 0.01

Const_13 f4 [16]
000000 5d 62 0d 40 f1 c0 44 bf 60 f8 3b bf bf 75 e5 3f
       2.2091286 -0.76856905 -0.73425865 1.7926558
000010 12 87 38 3e 46 68 d8 bf 94 66 16 c0 8c b2 31 3e
       0.18020275 -1.6906822 -2.3500109 0.17353266
000020 38 89 ea bd 96 41 b3 be 7d ed 47 bf 38 0b 80 bd
       -0.11451954 -0.35010976 -0.78096753 -0.0625214
000030 96 92 cf 3e 82 4a 54 bf 3e 09 a5 3e 76 b4 a0 be
       0.40541524 -0.8292619 0.32233614 -0.3138768

Const_17 f4 [16]
000000 61 ce 1b bf ea 6d 9a bf 81 d0 1c bf d0 41 7a 3d
       -0.60861784 -1.2064793 -0.6125565 0.06109792
000010 91 b7 56 3f 38 51 21 3f e3 9e 8a 3f 5a 8d 41 3f
       0.8387385 0.63014555 1.0829738 0.7560631
000020 76 d9 3a bf 39 fe ed 3e 22 56 78 be d8 12 39 3f
       -0.7298807 0.4648302 -0.24251607 0.7229438
000030 46 11 0f 3f 0c df b9 3d 98 d6 19 bd 41 60 9a 3f
       0.5588573 0.09075746 -0.03755817 1.2060624

Const_21 f4 [16]
000000 90 18 f8 3e e0 79 eb 3e 6a 89 b2 3e 52 c8 48 c0
       0.4845624 0.4599142 0.34870464 -3.1372266
000010 66 63 86 c0 bf a2 8f c0 8b 47 ae c0 f4 85 a1 3e
       -4.1996336 -4.4886165 -5.4462333 0.3154751
000020 31 a7 3c c0 b2 05 c4 3e 08 c2 54 c0 7b f9 25 c0
       -2.9477046 0.38285595 -3.3243427 -2.593352
000030 a5 8c 9b c0 22 a0 5b c0 e0 56 7c c0 86 5b 46 c0
       -4.8609185 -3.4316487 -3.9428024 -3.0993361

Const_24 f4 [3]
000000 03 4a a0 3e 74 f6 3c 3e 7f ff a9 bf
       0.31306466 0.1845339 -1.3281096

Const_9 f4 [16]
000000 a2 2d a8 3f e7 47 f4 be a8 f7 9f bd b2 92 e2 3e
       1.3138926 -0.47711107 -0.078109086 0.44252545
000010 1f 50 b7 be be 8a 74 3f d2 5e af be 09 44 8a be
       -0.35803315 0.95524204 -0.3425203 -0.27005032
000020 82 0c c4 3c 8e 49 b7 3e 81 6b 15 bf ed 9c 67 3e
       0.023931745 0.35798305 -0.5836716 0.22618456
000030 03 f6 03 3f 0c d4 69 3e e3 ef b5 3e bc 5a f6 be
       0.5154726 0.22834796 0.35534582 -0.481161

MatMul f4 [3, 16]
000000 60 9f 92 bf 70 b5 4b bf a6 96 75 bf a0 cf a0 3f
       -1.1454887 -0.79573727 -0.95932996 1.2563362
000010 4e 90 b7 3f 6f 2d 9b 3f 81 b2 a2 3f d4 e6 72 bf
       1.4340913 1.212324 1.2710725 -0.94883466
000020 d7 5d b3 3f 39 51 2a bf bf e0 b8 3f 0e b3 a7 3f
       1.4013013 -0.66530186 1.4443587 1.3101518
000030 bb d9 c4 3f 51 7d 8d 3f b5 63 99 3f ac 61 a8 3f
       1.5378946 1.1053869 1.1983553 1.3154807
000040 f5 33 c2 3f 27 da 90 3f 1e 82 83 3f f2 63 9d bf
       1.5172106 1.1316575 1.0274084 -1.2296126
000050 c7 1a b6 bf 86 5b d1 bf f4 e1 d9 bf f6 fd 56 3f
       -1.4226922 -1.6356056 -1.702208 0.83981264
000060 28 68 aa bf f1 1e 7f 3f c7 19 d2 bf 7d 59 d7 bf
       -1.3313036 0.9965659 -1.6414117 -1.6824185
000070 d9 31 e4 bf 09 0b e9 bf e1 52 da bf 42 94 ad bf
       -1.7827712 -1.8206493 -1.7056543 -1.356087
000080 e8 9a af bf 9d 1b b0 bf bb a9 c0 bf cc 5f 7e bf
       -1.3719149 -1.3758427 -1.5051798 -0.99364924
000090 6f 41 77 bf a5 a9 89 bf 21 6d 8f bf a9 a9 dc bf
       -0.9658422 -1.0754896 -1.1205178 -1.7239276
0000a0 f5 4c a6 bf 61 9a ca bf 84 3e 85 bf f1 2f 7f bf
       -1.2992235 -1.5828363 -1.0409703 -0.9968253
0000b0 ef 6e 85 bf 8e a9 17 bf 37 17 49 bf a6 ef 5c bf
       -1.0424479 -0.59243095 -0.7855105 -0.86303174

convolution f4 [1, 3, 3, 1]
000000 cd 31 09 3e dc e2 a0 bc ac 7e ce bc 1b 5f 99 be
       0.13397904 -0.019639425 -0.025206886 -0.29955372
000010 b7 60 e3 3d 3f 1b f1 3b a1 96 55 3f 7e 6d 31 be
       0.11102431 0.0073579843 0.83432966 -0.17326924
000020 65 31 9a 3c
       0.018822381

convolution_1 f4 [16, 1, 1, 1]
000000 18 24 88 bf b2 27 97 3f e8 8d a1 3f db 0a a8 bf
       -1.0636015 1.1808989 1.2621431 -1.3128313
000010 e6 c9 c4 bf a3 0c 9c bf aa a0 ac 3f 58 7f c7 bf
       -1.5374115 -1.2191356 1.3486531 -1.5585737
000020 99 ba bd bf b0 af 66 bf c3 68 a6 3f 3d 1b 92 3f
       -1.482257 -0.9011183 1.3000721 1.1414562
000030 2b 64 94 3f 2f 4d b2 3f b9 01 ad bf 8d 6a ab 3f
       1.1593069 1.3929805 -1.3516151 1.3391892

depthwise f4 [1, 3, 3, 16]
000000 b0 cd cb bb dc 79 31 be 79 cd 1b be fb 13 8c 3e
       -0.006219588 -0.17331642 -0.152151 0.27358994
000010 97 21 93 3e a1 81 4e be e7 fc dc bd c9 93 e5 3e
       0.28736565 -0.20166637 -0.10790425 0.44839314
000020 c3 56 a5 bd 83 05 17 bd c1 c0 49 3d 98 61 6d 3e
       -0.08073189 -0.03687049 0.04925609 0.2318176
000030 16 4c d0 bd cf 4a 86 be ed 83 6f bc 64 64 45 3e
       -0.10170762 -0.2622895 -0.014618856 0.19276577
000040 24 bc 73 3e eb 38 2e bd 53 e2 e8 bd f2 d5 fe 3d
       0.23802239 -0.04253475 -0.11371293 0.124431506
000050 7a fd 0c 3e 41 72 ae 3d 23 9a db 3e d5 bc 37 be
       0.13768569 0.08517886 0.42891034 -0.17943127
000060 8c c9 81 be 66 45 81 be 1d 56 87 3e fb 06 67 3e
       -0.2534908 -0.2524826 0.26432887 0.22561257
000070 4e eb 79 3c c6 d3 22 be 35 0d be 3e 77 6f 87 3e
       0.015253855 -0.15901098 0.3711945 0.26452228
000080 d8 e8 b1 3d 31 bc 01 be 20 dd d7 3d 67 20 ec 3e
       0.086869895 -0.12669446 0.10540223 0.4611847
000090 4f 2a dd 3d 92 2b c7 bd 2f 57 05 3c e5 05 34 3e
       0.10799085 -0.09725107 0.008138462 0.17580374
0000a0 7a 78 1e be 32 0b 2e 3b d6 6b 3c 3d 35 eb 8a 3d
       -0.15475646 0.0026556966 0.046001278 0.067831434
0000b0 d4 0c 12 bd 59 d2 63 be f1 4a c6 3d ab 44 60 3e
       -0.035656765 -0.2224821 0.09682263 0.21901195
0000c0 b3 cb d8 3e 54 7e 95 be 07 73 fe 3d 29 c6 5b 3c
       0.4234291 -0.29197943 0.124242835 0.013413944
0000d0 4b 9a 39 3c 12 6e ae be 35 7b 2c 3e 9c 88 ac be
       0.01132829 -0.34068352 0.16843875 -0.33697975
0000e0 9e 51 62 be f7 e2 bc 3e 6a e6 98 be 79 8b 01 bd
       -0.22101447 0.3689191 -0.29863292 -0.031627152
0000f0 22 45 72 bd 6b b8 3d be 1a 93 9a 3d e7 88 b5 3c
       -0.05914796 -0.18527381 0.07547589 0.022160007
000100 23 a2 da 3e 6d a2 8e 3e 30 d6 6c 3e 38 30 b8 be
       0.42701825 0.27858296 0.23128581 -0.35974288
000110 43 e4 e3 3e e7 47 a7 3c 7f 67 b3 3d 3a f7 a7 3d
       0.44510087 0.020420028 0.08759975 0.082014516
000120 ed 65 aa be df f1 7e be 0e a5 be be b7 e2 05 bf
       -0.33280888 -0.24896954 -0.37235302 -0.52299064
000130 1a e8 40 3e 53 95 0b bf 36 0f 19 be 9c 3f 32 3f
       0.1883854 -0.54524726 -0.14947209 0.6962831
000140 d0 00 ae 3e 44 25 25 be 14 44 c7 3d 64 75 b3 bd
       0.33984995 -0.16127497 0.09729782 -0.08762625
000150 91 71 4e 3e 6e 2d df be 63 d6 df bd bc 63 e6 b9
       0.2016051 -0.43589348 -0.10929563 -0.00043943326
000160 a6 fa 50 be 0a 58 09 bd 8c 3d b1 be d4 95 ad be
       -0.20408115 -0.033531226 -0.3461727 -0.33903372
000170 bd 8b 13 bf e1 20 07 3e 41 8e 62 be 45 b3 04 3e
       -0.576351 0.13196136 -0.22124578 0.12959011
000180 06 70 a4 3e f6 64 8b 3d 4d a3 5f be 45 5f bf 3a
       0.32116717 0.06806366 -0.21839638 0.0014600536
000190 62 b3 ca 3e 1a a5 8e 3e 4c 48 62 3d 9b 95 93 3e
       0.39589983 0.27860337 0.05524473 0.28825077
0001a0 11 9c 2e be b2 fb a8 3e 40 18 49 be e3 97 91 bd
       -0.17051722 0.33004528 -0.19638157 -0.07109048
0001b0 5f 05 f5 3d c6 23 23 be 77 03 19 be 49 6d 97 3d
       0.11963915 -0.15931615 -0.14942728 0.07393891
0001c0 24 14 08 3f aa 5e 22 3e 0c 35 9e be fc f2 7f be
       0.5315573 0.15856424 -0.30899847 -0.24995035
0001d0 15 72 80 3e a6 ad ad 3e 6d 4c fa 3e 97 9c 0a bf
       0.25087038 0.33921546 0.48886433 -0.5414519
0001e0 25 44 b1 be 99 d0 c5 bc ad d0 87 be 9b 11 67 be
       -0.34622303 -0.024147319 -0.26526394 -0.2256531
0001f0 23 18 af 3e d7 d5 a5 bd 30 37 6c 3e 07 d1 fc bd
       0.34198102 -0.08097427 0.23067927 -0.12344556
000200 58 d0 89 3e d2 3a 2b 3e 09 fb 82 be fc c8 e1 3d
       0.26916766 0.16721657 -0.2558215 0.11024663
000210 56 ba b4 3e 23 6b 9d 3e b4 3b 12 ba c1 ad 2c 3e
       0.35298413 0.307458 -0.00055783545 0.16863157
000220 44 6c 05 be 43 fd af 3c 3d a9 9c be 14 80 83 be
       -0.13029581 0.02148307 -0.3059787 -0.25683653
000230 ac d3 06 be 09 59 ab 3c b0 a3 d0 be da 3a a4 3c
       -0.13166684 0.020916479 -0.40749884 0.020047594

convolution_2 f4 [16, 1, 1, 16]
000000 1d 4f 34 bf 0f 81 5c be 2b 64 c1 bd 36 26 9a 3e
       -0.7043322 -0.21533607 -0.09442934 0.30107278
000010 e2 23 d5 bd 2b 48 d6 bc 6e 96 95 bd 9e 8c e1 3c
       -0.10407235 -0.02615746 -0.07304083 0.027532872
000020 f4 09 95 3d a4 bc b4 bd 95 d2 c6 3b cb bd f0 bd
       0.07277289 -0.08825043 0.006067584 -0.1175495
000030 06 77 fe 3d 11 06 85 bd ce 10 c4 3d c5 e8 5f 3d
       0.12425046 -0.06495298 0.09573518 0.054665346
000040 aa e0 c2 3e d3 2f 20 3d 06 4b 1c 3d fe 08 04 3f
       0.3806203 0.03910811 0.038157485 0.5157622
000050 87 36 0a bf 57 0a f9 3d 21 b3 8a be 98 8b 83 3e
       -0.5398945 0.12160175 -0.2708979 0.2569244
000060 76 49 45 3d a4 c4 ba 3d 8f cc 1d bd 97 26 cb 3e
       0.04816576 0.091195375 -0.03852516 0.3967788
000070 d0 54 ba bd b5 c3 b4 be d1 9c 37 3e 1b 86 ee be
       -0.09098208 -0.35305563 0.17930914 -0.4658669
000080 8a 2b d3 3e f4 cb 83 3f 83 92 35 3f 7d fc a0 3c
       0.41244155 1.0296617 0.70926684 0.019651646
000090 ec 9f 60 bf 9f 0d d3 3e 63 66 60 3d aa b2 5c 3d
       -0.8774402 0.4122133 0.054785144 0.053881325
0000a0 a7 b7 8e be 49 e6 c4 be ec 85 bb bd e6 5f 5f 3e
       -0.2787449 -0.38456944 -0.09156403 0.21813926
0000b0 ac 40 a6 3e f3 36 c2 3e 44 95 08 bf 30 63 38 3e
       0.32471216 0.37932548 -0.5335276 0.18006587
0000c0 8c 8d 1d be 88 8b 6f 3d fd 6b 8f 3e 0a 33 b8 be
       -0.15386027 0.058482677 0.28012076 -0.3597644
0000d0 e6 ce 29 bf d1 81 de 3e 43 00 3e bc 78 52 3a 3e
       -0.66331327 0.43458417 -0.011596742 0.18195522
0000e0 7b 8c 1e be 5e e8 bf bd 24 3e 28 3d 7d eb 54 3e
       -0.15483277 -0.093704924 0.041074887 0.20792957
0000f0 d1 03 0c bd bd 8e e8 bc 89 ea 06 be 0c 76 79 be
       -0.034183327 -0.028388375 -0.13175406 -0.24361438
000100 61 3c 36 3d 1c 08 96 bc 45 b4 e9 3e 9d 34 ac bd
       0.044491176 -0.018314414 0.45645347 -0.08408473
000110 98 5e 4e be 2f 34 fc 3e 34 d9 8a be 45 29 c2 bc
       -0.20153272 0.49258563 -0.27118838 -0.02370132
000120 61 d0 70 be b9 6c 17 3e d7 08 63 3d 2f 35 93 3e
       -0.2351699 0.14787568 0.055428352 0.28751513
000130 94 b7 af be b1 29 12 3e 52 14 63 3e b8 b0 89 3d
       -0.34319746 0.14273717 0.2217572 0.067231596
000140 78 80 26 3f d1 0e ed 3c 42 99 af 3e 86 b0 94 3c
       0.6503978 0.02893773 0.34296614 0.01815058
000150 8b ff 69 3d 3e 44 95 be eb 35 cb bd d1 f9 10 bf
       0.05712847 -0.29153627 -0.099223934 -0.5663119
000160 f8 57 fc 3e cd e0 fb 3d ad f2 d3 be d6 39 64 3d
       0.49285865 0.12298737 -0.41396084 0.05571922
000170 79 2b 3b 3e ab 39 3d bd c1 3e 63 3e 5e e6 23 bf
       0.18278302 -0.046197575 0.22191907 -0.6402339
000180 14 bd 15 3f 44 62 bb 3d 18 f5 21 3e 01 86 82 be
       0.58491635 0.09149602 0.15816152 -0.25492862
000190 1f 5e 06 bf 08 64 f3 bd a7 b9 77 bf 53 1c bc 3e
       -0.5248737 -0.11884314 -0.9676766 0.3674036
0001a0 98 68 6b be 8b 2a 57 be a8 f8 07 3f 94 3c 60 bf
       -0.22989118 -0.21012323 0.53113794 -0.87592435
0001b0 80 1c c5 3d 1c d2 86 bf 9b e2 fb bc a0 26 9c bf
       0.096245766 -1.053287 -0.030747702 -1.2199287
0001c0 fa c7 63 3d bf 0b 4a 3d 0d 78 53 be 89 2a 05 be
       0.055610634 0.04932761 -0.20651264 -0.13004507
0001d0 99 95 bb 3e cd e7 eb 3e 47 bd 89 be 1e c4 11 3e
       0.3663757 0.46075287 -0.2690222 0.14234969
0001e0 30 6f b9 3e 9c 90 a1 3d 2f 1e e8 3e 7b ba a9 bd
       0.36217642 0.0788891 0.45335528 -0.082875215
0001f0 98 21 94 3e d4 ca bc 3e 9a 47 90 be 71 1e 16 3d
       0.2893188 0.36873496 -0.28179628 0.036650125
000200 5b 86 70 bd bb 2a d7 bc 5c aa 00 be e8 43 92 3d
       -0.05872188 -0.026265493 -0.12564987 0.07141858
000210 5a 98 8b 3e e6 bd e5 bd ab f7 74 3d 8e 7e 0b bd
       0.27264673 -0.11217861 0.059806507 -0.03405624
000220 62 81 83 be 0c 16 8e be fb 37 2c 3d 83 d6 99 bd
       -0.2568465 -0.27751195 0.042045575 -0.07511618
000230 c7 2b 1f be 9a fd 78 be 8f 3a 13 3e 0c c5 cd bd
       -0.15544043 -0.24315491 0.14377807 -0.10047349
000240 e9 3f e1 3d 28 55 1c 3d b1 27 80 3e f1 e8 1f 3e
       0.10998518 0.03816715 0.25030282 0.15616204
000250 ee 57 5f be 22 85 e2 bd 94 ff 84 be 89 82 13 bf
       -0.21810886 -0.11060549 -0.2597624 -0.57621056
000260 65 e0 16 be 6b 07 3c 3e 9e 17 0b 3f b6 96 20 be
       -0.14734037 0.18362205 0.5433291 -0.15682492
000270 fb a1 08 3e ad 1a aa be 07 8c 54 3e 02 6d 0d bf
       0.1334304 -0.33223477 0.20756541 -0.5524446
000280 54 b0 9c 3e e9 44 66 3e 19 90 e8 3d 76 b0 55 bc
       0.30603278 0.22487225 0.113556094 -0.01304256
000290 b4 97 dd 3d 85 42 38 3d f0 3f a6 bd cf 54 3b 3d
       0.10819951 0.044985313 -0.08117664 0.045735177
0002a0 50 dd a4 be ca b0 9a be 8d 8b ba 3c ef 1d c9 3e
       -0.32200098 -0.30213004 0.022771621 0.3928065
0002b0 bf 15 b8 bd 2e e3 02 3e ec 4c 0c 3e e3 41 5b be
       -0.08988523 0.12781975 0.13701218 -0.21411853
0002c0 88 e7 c0 3d 60 f7 ae be 42 fc c3 3c bf 8b 52 3e
       0.09419161 -0.34173107 0.023923997 0.20561121
0002d0 34 6e cd be e6 98 ab 3e 2b 86 89 be 67 b8 d9 3e
       -0.4012314 0.3351509 -0.26860175 0.425235
0002e0 03 97 2f 3f ef e3 c0 ba ba dc fd 3d c8 a7 ef be
       0.685898 -0.0014716367 0.12395616 -0.46807694
0002f0 bc b5 e7 3d ac 63 37 be 61 1b c0 3d 00 cf 87 be
       0.1131396 -0.17909116 0.09380222 -0.26525116
000300 eb f6 aa 3d 3f cf 55 3d 3f 13 77 be 45 94 79 3d
       0.08347877 0.0521996 -0.24128436 0.060932416
000310 d9 fe a9 bd 3d e1 84 be 47 1e 86 be a0 18 29 3e
       -0.083005615 -0.25953093 -0.26194975 0.165133
000320 8f fa b3 bd 0f 97 19 3f d2 c1 0b 3f 94 8d 2a 3e
       -0.08788025 0.5999612 0.5459262 0.1665557
000330 d9 19 29 3f 5a 56 d3 3e a6 32 db be 5e 15 97 3e
       0.66055065 0.4127682 -0.4281208 0.2950849
000340 2c cb 6f 3e 3e fa e4 3d 31 0f 26 3e a6 9d c1 3e
       0.23417348 0.111805424 0.16216733 0.3781559
000350 87 e0 41 3e ad f0 54 be d3 96 80 3d 19 0a fd 3e
       0.18933307 -0.20794936 0.062787674 0.49421766
000360 ca 2d f2 3d 02 be 86 bd b3 bf b9 3e 1f 5a 2b 3e
       0.1182514 -0.0657921 0.36279067 0.16733597
000370 f0 62 9c be 38 24 bb bd fc 65 88 3d 30 36 dc be
       -0.30544233 -0.091377676 0.06660077 -0.43010092
000380 9e 13 6b bd b2 86 c2 3b b8 a5 36 be a9 46 37 3d
       -0.057391755 0.005936467 -0.17836654 0.04474512
000390 a9 22 fb be 74 a0 e0 bd f8 e5 66 3e ce cb cd bd
       -0.4904988 -0.10968104 0.22548664 -0.10048638
0003a0 93 dd 99 bc 42 49 60 be 78 d0 8e 3e 1d 9c 93 3e
       -0.018782413 -0.21902946 0.27893424 0.28830042
0003b0 50 95 18 3f 15 5f ac be 79 9c 07 bf af ac 7a be
       0.5960283 -0.33666292 -0.52973133 -0.24479936
0003c0 15 49 4c bd 39 b0 4e 3e be a1 11 be 93 32 b8 3e
       -0.049874384 0.20184411 -0.14221856 0.35976085
0003d0 5f b5 b1 3e 39 7a 7d bd 8e c6 df bd 76 40 db 3e
       0.34708688 -0.06188414 -0.10926543 0.42822617
0003e0 e8 75 fb be 36 6a d8 3d 15 de 80 3e 66 73 6c 3e
       -0.49113393 0.10567133 0.25169435 0.23090896
0003f0 8b bf 8f 3e 53 da 16 bc 3f 4a 5a be 05 d8 60 be
       0.28075823 -0.009207326 -0.21317385 -0.21957405

depthwise_1 f4 [1, 3, 3, 16]
000000 ed c9 9f be 25 70 ba bc a0 15 e6 bd dd 24 b9 3d
       -0.31208745 -0.022758553 -0.112345934 0.09040234
000010 8a 87 7b 3e ea 9a 1d be d9 81 d8 3e bb c9 57 3e
       0.24563423 -0.15391126 0.42286566 0.21073048
000020 d0 10 18 be ba 16 92 bd 34 82 30 3e d8 a1 0b 3e
       -0.14850163 -0.07133241 0.17237169 0.13635957
000030 af 32 a6 be a2 97 0b bd 14 9b 71 bc 59 fc 32 3d
       -0.32460544 -0.034080155 -0.014746446 0.04369769
000040 ea 93 38 3e b2 63 8a be a3 d5 7e 3d 4f ed c9 be
       0.18025175 -0.27029186 0.06221546 -0.39438865
000050 6d f8 e0 3e 8e 4d ba 3e c6 4a ed bb d6 70 5b 3e
       0.43939534 0.36387295 -0.0072415797 0.21429762
000060 01 79 81 3e 9e 43 3a be bf f5 f0 bd 53 73 aa 3d
       0.2528763 -0.18189856 -0.11765622 0.083227776
000070 42 29 96 bd 9b 11 cf 3d de a6 c4 be 6b 90 3e 3e
       -0.07332088 0.1011078 -0.3840856 0.18609779
000080 e1 11 da 3e 08 71 bd bd c9 82 70 3e 2a 58 22 3d
       0.42591766 -0.092500746 0.2348739 0.03963486
000090 64 f6 2b 3e 22 0e 83 3e fc 5b 9a 3e eb 04 f5 3a
       0.1679321 0.2559672 0.30148304 0.0018693482
0000a0 41 a5 6e 3d 7f 85 d7 be 10 0c a0 3d 71 ed 1a be
       0.058263067 -0.42094037 0.07814801 -0.15129639
0000b0 1d f9 ac be 94 42 a4 3c fb 89 7f be ed e4 61 3e
       -0.33783808 0.020051278 -0.24954979 0.22059985
0000c0 45 ce ca be 9d 94 24 be 49 b6 d4 3e f1 20 54 be
       -0.39610496 -0.16072316 0.41545323 -0.20715691
0000d0 5a ae a0 3c 9f 6b 5d bd 6c 1b 02 3f 1f a1 34 3e
       0.019614387 -0.054057714 0.5082309 0.17639588
0000e0 8d de 07 3d 98 4b 1c be 35 46 58 be 46 1d e5 bd
       0.033171225 -0.15263212 -0.21120532 -0.11187224
0000f0 09 d1 2d 3e bb bc 07 3e 76 6d b9 3b 2a df a4 3d
       0.16974272 0.13255589 0.0056588007 0.08050378
000100 de 29 78 3e 28 c3 0c 3e 4b 41 06 3f 88 be 35 bf
       0.24234721 0.13746321 0.5244338 -0.7099385
000110 d6 21 81 3e bf 4e 2e 3d 45 50 b5 be 62 2a fa 3e
       0.25221127 0.042555567 -0.35412803 0.4886046
000120 81 e1 73 be cc 51 22 bf 9c 5c 1b 3f 09 1c 50 3f
       -0.23816492 -0.6340606 0.60688186 0.8129278
000130 03 ac 28 be 17 11 b9 3e 0d ca 98 be 6f ff 96 3e
       -0.16471867 0.3614585 -0.29841653 0.29491755
000140 19 94 53 bd ce f2 ea be 0d 5d 9d bc f5 44 a0 bd
       -0.05165491 -0.4588837 -0.01920941 -0.078256525
000150 98 ea 95 3e 37 12 f5 3e b2 05 a7 3e 3b b6 19 3f
       0.29280543 0.4786546 0.32621533 0.60043687
000160 72 ce 00 bf 35 53 03 bf 36 bd 17 3e ba a9 0b 3e
       -0.5031501 -0.5129884 0.14818272 0.13638964
000170 ca 6d 98 3d 20 dd 12 3e 8d ca 80 be 3c d1 5f 3e
       0.074428156 0.14342165 -0.25154534 0.2185716
000180 63 e8 f2 bd e2 af 70 3c 08 cc 82 3e 5a fe d5 3d
       -0.118607305 0.014690371 0.25546288 0.10448904
000190 0c 8e 99 3d 30 31 b0 3d 0f f1 d4 3e 0c c2 b5 bc
       0.074977964 0.08603132 0.41590163 -0.022187255
0001a0 7f 73 5f bd 64 b6 a2 3c 11 6c 50 3e 34 4e a6 3e
       -0.054553505 0.019862361 0.20353724 0.3248154
0001b0 39 80 92 be 20 52 c4 3d 34 d9 b0 bc 81 e4 87 3d
       -0.2861345 0.095859766 -0.021587946 0.066353805
0001c0 e5 45 1a 3e a2 85 a9 3e 16 ce 1e 3e 47 ba e7 3c
       0.15065725 0.33109766 0.15508303 0.028287066
0001d0 52 16 22 3e 66 7d a4 3c 3b c0 88 3e 4a 3a 1b 3e
       0.15828827 0.020079326 0.2670916 0.15158954
0001e0 9c df 44 3e 6f 73 48 bd a3 ce a8 be 8b 05 9c 3e
       0.19225925 -0.04893821 -0.3297015 0.3047298
0001f0 04 4b 41 be 67 8a b5 3e 8b cd da be ff 91 87 3e
       -0.18876272 0.35457155 -0.42734942 0.26478574
000200 6f 6f 27 3d 3c dd 83 3c f7 a5 34 3e 4b bd bd 3e
       0.040877756 0.016096704 0.17641436 0.37058482
000210 28 68 d3 3d d3 2c 17 3c ca 00 2e 3f ad d6 96 bd
       0.103226006 0.0092269955 0.67969954 -0.07365165
000220 b0 6d 5c 3d 25 3f 92 be ef 08 7b be c1 8b 66 3d
       0.053815544 -0.285638 -0.24515127 0.056285623
000230 d6 b7 86 be e2 a4 b7 3e 5d 3a 73 be 35 f6 28 3e
       -0.2631213 0.35867983 -0.23752733 0.1650017

convolution_3 f4 [16, 1, 1, 16]
000000 27 4a c1 3d c2 3b 35 3d 37 62 8b 3f 19 4f c4 be
       0.094379716 0.044246443 1.0889348 -0.38341597
000010 8f 3d 48 3d 4a 85 98 be ae a5 7d 3c b6 8d 86 bf
       0.04888683 -0.2978919 0.015481396 -1.0511997
000020 c5 f0 e7 bc 68 1b b4 3e b8 30 98 bd 9e fc 0f 3f
       -0.02831305 0.3517716 -0.07431167 0.5624484
000030 eb 92 e8 bd 92 24 6b be 94 30 bc 3d f3 9a b0 bb
       -0.113561474 -0.22963169 0.09188953 -0.005389565
000040 ff 91 81 bf 65 31 25 3f c3 51 dd be b8 21 3a 3e
       -1.012268 0.64528495 -0.43226442 0.18176925
000050 4f d8 0f c0 73 f7 53 3f 3b ac 20 bf 23 f7 73 3e
       -2.2475774 0.8279945 -0.627628 0.23824744
000060 4a bc b9 3e 81 89 3a bf e3 72 25 be ff 4d d0 be
       0.36276466 -0.72866064 -0.16157107 -0.40684506
000070 7a 7f 1e bf 34 1a 25 3f a0 c6 8b 3e 5e b6 80 bf
       -0.61913264 0.6449311 0.27299976 -1.0055654
000080 df 55 da be 3d ad 68 3e 34 33 74 bd fa 8f 79 be
       -0.4264364 0.22722335 -0.059619144 -0.24371329
000090 68 7c 04 3e b0 19 5b 3f d9 2d 08 3f 43 e2 21 3e
       0.12938082 0.8558607 0.5319496 0.15808968
0000a0 a4 4c 9e be 8f bf 30 3f aa 3e e6 be d0 e2 5a bf
       -0.30917847 0.69042295 -0.44969684 -0.8550234
0000b0 0e 5a 8e 3f 98 8f cf 3e 12 0d f7 be fd cf 2a 3d
       1.1121233 0.4053924 -0.4825216 0.04170226
0000c0 d6 1f d5 3f 5b 03 8c be 15 0f 3c be 94 67 8a 3e
       1.665034 -0.2734631 -0.18365128 0.2703215
0000d0 e2 04 d9 bc ab f7 04 3d 5a 85 21 3f b0 24 0d be
       -0.026491586 0.032462757 0.63094103 -0.13783526
0000e0 df 2b c4 be ba 1d 3a 3e ba 7d 90 3e 36 c9 ec 3e
       -0.3831472 0.18175402 0.28220922 0.46247262
0000f0 d9 12 ed be 30 18 8f bd 7e 65 03 be 9a 43 4c bf
       -0.46303442 -0.06987035 -0.12831685 -0.7979065
000100 1f a3 2f bf a2 6a 86 bf ed ad e5 bf 5f f6 13 bd
       -0.6860828 -1.0501292 -1.7943703 -0.03612363
000110 10 b2 8d 3f 8f 2d 73 bf 4f 5c c5 3e 86 9f e7 3d
       1.1069965 -0.9499139 0.38546988 0.113097236
000120 e4 ff 8f 3f bb dd 43 bf 05 07 ca 3e c3 4c cb 3f
       1.1249967 -0.7651021 0.3945848 1.5882801
000130 db 20 69 3e 00 2e 34 3f 70 69 85 3f 69 d5 34 bf
       0.2276644 0.7038269 1.0422802 -0.7063814
000140 5e f3 df bd ad 8d 24 3f 9f 11 10 bf cd b2 f0 be
       -0.109350905 0.6427868 -0.5627689 -0.47011414
000150 a1 5c dc bd 72 af a3 be f4 62 c1 3e 0a 85 fa be
       -0.10759855 -0.31969792 0.37770808 -0.48929626
000160 1b ac 63 3e 14 07 16 3d 35 2e f8 3e e5 ca 82 bf
       0.22233622 0.036627844 0.48472753 -1.0218168
000170 6c 33 76 3e cf d1 80 bf 81 ea cf bd 49 6d 57 bd
       0.24043053 -1.0064029 -0.1015215 -0.052594457
000180 d4 a5 1f bf 8d 4b ba 3e 20 93 2a 3f bf d5 8d 3f
       -0.6236241 0.36385766 0.66630745 1.1080855
000190 f2 e7 25 3e 5b b1 5f bf 97 b9 44 bf 78 41 2a bd
       0.16201761 -0.8738 -0.7684569 -0.041566342
0001a0 e5 36 86 bc 71 06 ce 3e 11 cc fe 3e ce 00 2d 3e
       -0.016383598 0.4023929 0.49765065 0.16894838
0001b0 77 52 8e 3f a3 6a a3 be 67 51 65 bb aa 9b db bd
       1.1118916 -0.31917295 -0.0034991147 -0.1072305
0001c0 2c 69 71 3e b4 0d 01 be c6 05 1a 3e 37 33 b7 3e
       0.23575276 -0.12602884 0.15041265 0.3578126
0001d0 09 a6 24 3f d3 a2 20 3e b9 4f 70 bf 58 61 d6 be
       0.6431585 0.15687113 -0.9387165 -0.41871142
0001e0 6d 17 53 3f d5 94 7e 3f d8 c9 9c 3e ed 06 b2 be
       0.8245762 0.9944585 0.30622745 -0.3477091
0001f0 8e 95 87 bf c0 ad b7 be ff 75 dd be 52 55 0d 3d
       -1.0592515 -0.35874748 -0.43254086 0.034505196
000200 c9 22 3b bd 77 4a 57 3e d1 2b 80 bc 10 6c f0 3d
       -0.04568747 0.210245 -0.015645893 0.11739361
000210 e3 30 4d be de 78 35 3e ad b1 b2 3e c4 17 49 3e
       -0.2003818 0.17721888 0.3490118 0.19637972
000220 bd 0a 54 bd a1 13 0d bf b4 5d 03 3c f4 b1 52 3d
       -0.051768053 -0.55108076 0.008017946 0.05143924
000230 44 78 22 be eb ab 11 3f 34 6d 49 3f 0d 0d b6 bf
       -0.1586619 0.5690295 0.78682256 -1.4222733
000240 5a c1 1b 3e 75 a1 9c bd 59 26 cd be 6a 46 3d bd
       0.15210477 -0.07647983 -0.4006832 -0.04620973
000250 e2 27 be 3d b8 53 62 be 04 54 f2 be 15 21 6f bf
       0.09284951 -0.22102249 -0.47329724 -0.93409854
000260 6c 9a 58 be b4 a4 f2 bd 84 4e 85 bf 01 46 75 3f
       -0.21152657 -0.11847821 -1.0414586 0.9580994
000270 89 8a ce be b1 08 01 bf 15 ac 9f 3d ae 9d 46 3e
       -0.4034007 -0.5040389 0.07796494 0.19396088
000280 2f ac 8c be 1c 95 bc 3e 97 91 e3 3d 56 0c 02 bc
       -0.27475116 0.3683251 0.111117534 -0.007937511
000290 c0 7f 51 3e 03 92 5e 3e 94 9e fc bd 1a 7d 49 be
       0.20458889 0.21735387 -0.12334934 -0.19676629
0002a0 4d 90 22 3d bc 5a e6 3f 0c b6 98 3e ad 76 00 3f
       0.039688397 1.799644 0.2982639 0.50181085
0002b0 ce 88 02 bf cf 30 5f bf a7 a2 1b 3e 61 a5 33 bd
       -0.5099 -0.8718385 0.15198766 -0.04385889
0002c0 33 6e 83 3f 85 b5 a7 3f cb 98 8c be 9b 16 1e bf
       1.0268005 1.310227 -0.27460322 -0.61753243
0002d0 3d 87 5a bf bd 36 c2 bd 3f 59 47 3d 12 75 bb 3e
       -0.8536261 -0.09483097 0.048669096 0.36612755
0002e0 53 f4 32 3f 98 2b 15 3f 65 73 61 be 2a 07 df be
       0.6990406 0.58269644 -0.22016676 -0.43560153
0002f0 d9 f0 a2 3e 4b 6b e2 3e e3 fa 4e 3f 93 2d ba be
       0.31824377 0.44222483 0.8085157 -0.36362895
000300 58 d6 e6 3d 71 0a 8d 3e 20 54 a5 bc a4 9f cf 3f
       0.112713516 0.2754703 -0.020181715 1.6220593
000310 ed fe 8f bf b2 10 b4 be 43 ef 5d bf ce ec 42 3e
       -1.1249672 -0.35168988 -0.8669321 0.19035646
000320 98 d0 64 3e 29 b9 9a be b1 d3 7f 3e f1 93 72 3d
       0.22345197 -0.3021939 0.24983098 0.05922312
000330 48 49 b0 be be 99 00 be 28 2a f4 3f 10 e7 00 bd
       -0.3443091 -0.12558648 1.9075365 -0.03147036
000340 74 6b b5 be 69 de 0a 3d 80 00 f2 3e 9c b7 ea be
       -0.35433543 0.033903513 0.47266006 -0.45843208
000350 5c b0 ad 3e d5 b0 28 3e da b4 99 bf c3 cd 24 bf
       0.33923614 0.16473706 -1.2008317 -0.6437647
000360 e4 1a 6c be 56 71 f6 3d 5b ea 95 bf 78 81 d1 3e
       -0.23057133 0.12033336 -1.1712145 0.4091909
000370 88 21 b5 be 55 d0 5d be 0a 9f 3f 3f 00 09 b8 3e
       -0.35377145 -0.21661504 0.7485205 0.35944366
000380 0f 93 4c 3f 80 51 8f 3d 04 47 84 3e 3c 6f fe bc
       0.79911894 0.06997967 0.2583543 -0.0310589
000390 2d 02 01 bf ea fc 47 be b5 f7 29 bf f7 70 48 be
       -0.50393945 -0.19530073 -0.66393596 -0.19574343
0003a0 7b 6f 2a be ec 09 1e 3e 7d e9 63 be d3 bb 10 3f
       -0.16644089 0.15433472 -0.22257037 0.56536597
0003b0 89 f0 90 3e d9 18 50 be 97 e7 dd 3d 10 ce 4d be
       0.28308514 -0.20321979 0.10835188 -0.20098138
0003c0 da 75 e5 3d 09 55 0f bf b6 07 ab 3f 71 85 59 3f
       0.11204119 -0.5598913 1.3361728 0.8496924
0003d0 33 68 9d 3f 56 dc f1 be 49 73 ce be 77 94 b2 bf
       1.2297424 -0.47238415 -0.4032233 -1.3951558
0003e0 db 17 69 3f 68 d6 81 3f 3f c1 34 3f c6 d6 8c bd
       0.91052026 1.0143557 0.7060737 -0.06876902
0003f0 38 26 d1 bf 48 ac 6e bf 7c 5f 04 be ee c9 1e 3f
       -1.6339788 -0.9323163 -0.1292705 0.6202687

depthwise_2 f4 [1, 3, 3, 16]
000000 9d a4 0f be ec 4a 9c ba b4 4c bf 3d d8 96 90 3e
       -0.14027639 -0.0011924184 0.09340802 0.28240085
000010 b0 8a b8 3d a5 65 6b 3d b5 e0 d1 3d 58 24 6f bd
       0.090108275 0.057469983 0.102479376 -0.05838427
000020 59 01 74 3e f6 1d 24 3d a1 8e 6a bd 77 c7 39 be
       0.23828639 0.040067635 -0.057264928 -0.18142496
000030 aa 19 ef 3d fd bf 45 bd ce 01 9e 3e e8 95 8a 3d
       0.11674817 -0.048278797 0.30860752 0.067668736
000040 b6 07 44 3f 2e ab a7 be 23 bf 9b 3e c3 4e 52 3e
       0.76574266 -0.32747787 0.30419263 0.20537858
000050 af 05 bb bd 39 c1 64 3b 68 9f 0d bf f6 b1 31 bd
       -0.091319434 0.0034905209 -0.5532136 -0.043382607
000060 2a af 44 bf db 54 ab 3e 57 51 fb be b7 62 71 be
       -0.7682978 0.33463177 -0.49085495 -0.23572813
000070 97 f4 9e be 9b cc a3 be ea 6e cd 3e 74 b0 bb be
       -0.31045982 -0.3199204 0.40123683 -0.3665806
000080 a4 87 26 3e a4 82 d6 bd 5d e9 03 3e 46 23 3e 3e
       0.1626268 -0.104741365 0.1288199 0.18568143
000090 58 63 19 bf c3 c0 9f 3e 95 0d b3 bc 7e 05 d0 3d
       -0.5991721 0.31201753 -0.021857062 0.101572976
0000a0 9b 27 25 3f 63 66 c3 bc 0c bb f6 bd 29 a1 1d 3e
       0.6451356 -0.023852533 -0.12047395 0.15393509
0000b0 1a 32 fb 3d c6 56 0d be dd 12 d8 3e 2a 5a a3 3e
       0.122654155 -0.13802633 0.42201892 0.31904727
0000c0 bd d5 24 bd c1 5c 0f 3d 7d 6e 0d 3e 52 f5 3c 3e
       -0.0402429 0.035000566 0.13811679 0.18452957
0000d0 91 17 23 be df 30 ec be da 0f 4f 3e b9 d0 8c bd
       -0.15926959 -0.46131036 0.2022089 -0.06875748
0000e0 73 eb 8e 3b dc a0 10 3d 0c e6 85 3c 33 28 95 be
       0.004361564 0.035309657 0.016345046 -0.29132232
0000f0 5d 6c 9c 3e b9 07 05 be f4 46 57 3e 17 05 96 3e
       0.30551425 -0.12991227 0.2102316 0.29300758
000100 e2 97 c9 3e ab f6 87 be a4 b8 88 3e 0f 39 8b 3d
       0.3937369 -0.2655538 0.2670337 0.067979924
000110 d5 f7 bd 3d 82 03 c5 be 1c 3b 96 be a2 1c d0 be
       0.09275786 -0.3847924 -0.29341972 -0.40646845
000120 d2 4e 1a bf cd 71 e8 3e 0a c8 04 bf 17 72 c5 bd
       -0.6027652 0.45399323 -0.51867735 -0.096409015
000130 c1 c6 c8 be 30 36 47 bc 05 89 a7 3e e5 d2 9c be
       -0.39214137 -0.012158915 0.32721725 -0.3062965
000140 06 02 a5 3e 47 c9 fe be 06 9d 7e 3d 4d c5 87 3e
       0.32228106 -0.49762937 0.062161468 0.26517716
000150 e8 99 99 be 8f a9 f8 bd 93 19 96 bd d8 14 8c be
       -0.30000234 -0.12141716 -0.07329097 -0.27359653
000160 53 8a ea bd a4 9f 19 3e 8a c5 0b be c0 55 2e be
       -0.114521645 0.15002304 -0.13649574 -0.17024899
000170 5f 6b 65 3b 9b f1 1d bd 80 90 d7 bc 9d 6c 46 3d
       0.0035006625 -0.03856049 -0.02631402 0.048443425
000180 04 4b 6f bb c0 36 fd 3d bf 26 a3 3d 0b 5c ab 3d
       -0.0036513219 0.12363958 0.079663746 0.08367165
000190 c3 82 f9 bd 30 1e a1 3d 79 d0 a9 bd ab 6c bf bd
       -0.12183144 0.07867086 -0.08291716 -0.09346899
0001a0 25 87 36 3f 15 6a 35 3d c3 3e 95 3e 98 bd c2 be
       0.71299964 0.04429062 0.29149446 -0.38035274
0001b0 b7 ef c4 bd 25 34 3a be c3 fb 6f bd 33 20 26 3e
       -0.096160345 -0.18183954 -0.058589708 0.1622322
0001c0 b5 80 d3 3e 7d a3 84 be ca 92 3f 3e 65 24 82 bd
       0.41309133 -0.25905982 0.1870834 -0.06354598
0001d0 30 2b a4 3e 44 27 f5 be 0b e1 21 be d5 98 47 be
       0.320642 -0.4788152 -0.15808503 -0.19491895
0001e0 e0 58 1b bf ba 59 c4 3e 5e 8d 24 bf 4c d4 e4 be
       -0.6068249 0.38349706 -0.6427821 -0.4469322
0001f0 51 80 b5 be 3b 2b 7d 3e b4 3c da 3e 31 7f f6 bd
       -0.3544946 0.24723522 0.42624438 -0.120359786
000200 fb 0e d4 3d 82 be d9 be 13 34 e9 3d 48 ee 2e 3e
       0.1035442 -0.42528158 0.113868855 0.17083085
000210 07 19 6c be 42 03 41 bd 88 74 98 bd e6 5a 36 bd
       -0.23056422 -0.047122248 -0.074441016 -0.04452028
000220 39 db 09 bf be 16 52 3e fa 82 8f be da 81 0b be
       -0.5385013 0.20516488 -0.28029615 -0.13623753
000230 fc 26 dc bd 91 6e 3b be cf 25 04 be 74 05 52 3d
       -0.10749623 -0.18303896 -0.12905048 0.05127473

convolution_4 f4 [16, 1, 1, 16]
000000 8c 74 ce bf 53 a3 ec 40 8b ad 31 bf 92 fe cb c0
       -1.6129317 7.394937 -0.6940543 -6.3748255
000010 9f f7 a5 40 01 89 99 3f 91 36 1c c0 ab d9 2a c0
       5.186477 1.1994935 -2.4408305 -2.6695354
000020 a5 e4 56 c0 65 30 b6 be dd 98 79 be 3e ff 52 3f
       -3.3577054 -0.35583797 -0.24374719 0.8242072
000030 2f 93 45 40 a3 7c 0c c0 02 44 87 bf a0 d8 67 3f
       3.0871084 -2.1951072 -1.0567629 0.9056492
000040 47 ac c7 3f 11 0d 08 40 5e f0 78 bf d3 96 4d bf
       1.559945 2.1257975 -0.9724177 -0.80308264
000050 54 5a 84 40 ac f3 3e bf 51 c9 71 bf 1d 5c 01 c0
       4.1360264 -0.74590564 -0.9444781 -2.0212471
000060 72 03 a9 bf b1 b6 e1 3f 3b f1 9d bf 80 18 5f 40
       -1.3204176 1.7633878 -1.2339243 3.4858704
000070 4e fe 07 40 12 7c 40 be b0 7b 2e 40 91 dc 13 3f
       2.1248965 -0.18797329 2.7262993 0.5775843
000080 49 21 97 3f af 3f e6 3f 5a df 46 bf 5d 99 04 bf
       1.1807033 1.7988185 -0.7768456 -0.51796514
000090 ef 98 77 40 a9 e2 97 bf 4d 43 be be fc 02 f2 bf
       3.8687093 -1.1866046 -0.3716072 -1.8907161
0000a0 0c 76 b9 bf 2a e0 ed 3f e5 b9 31 bf f7 a3 74 40
       -1.448915 1.8584034 -0.6942428 3.8225076
0000b0 55 9f 11 40 16 3d 16 bf f1 30 33 40 62 8a 76 3f
       2.2753499 -0.5868696 2.7998621 0.96304905
0000c0 7a fb 1d c0 22 a8 2d c0 5f a3 90 3f 97 ae 37 3f
       -2.468474 -2.713387 1.1299857 0.7175078
0000d0 1b 1d 22 40 e3 54 16 40 28 20 a5 3f d9 44 95 3f
       2.5330265 2.348931 1.2900438 1.1661636
0000e0 25 a2 28 c1 fd 56 4a c0 7c cf 8a 40 2a 1b 19 3e
       -10.539586 -3.1615593 4.3378277 0.14951769
0000f0 34 c6 78 bf 7e 71 06 c0 a8 fb b2 bd b1 30 7c 40
       -0.97177434 -2.100677 -0.08739406 3.940472
000100 2c 60 86 c0 25 aa 89 c0 70 8d ac 3e 16 75 d8 3e
       -4.1992397 -4.3020196 0.33701658 0.4227683
000110 55 5c 35 3f de 05 ab 40 8d c9 dc 3f 1d 4e ff 3f
       0.7084401 5.344466 1.7249008 1.9945713
000120 70 b0 53 c1 2e 86 c7 c0 3e cf 8c 40 94 85 32 c0
       -13.230576 -6.2351294 4.400298 -2.789403
000130 e4 50 bd be 95 d1 ef bf e6 cc fd 3c 52 85 1a 40
       -0.36975777 -1.8735834 0.030981492 2.4143872
000140 86 5e b9 c0 5c 03 8b 3d 07 f7 c6 3f 9a d2 4a 40
       -5.7927885 0.0678775 1.5544137 3.169104
000150 59 bc 56 be ef c7 cb 40 cb c4 a0 3f 12 40 cb 3f
       -0.20970286 6.368156 1.2560056 1.5878928
000160 ed dc 43 c1 3b d6 97 c0 dd 08 0d 40 ba 73 87 c0
       -12.241437 -4.744901 2.203666 -4.232877
000170 0d 81 1d c0 c7 0e 0b c0 9b cb 0d c0 f3 cf 0f bf
       -2.4610016 -2.172777 -2.215552 -0.5617668
000180 9d 57 d4 c0 e7 8b 6e c0 23 2c 15 40 e5 b5 8d 3f
       -6.635695 -3.727289 2.330819 1.1071135
000190 42 14 4e 40 8b 82 89 40 48 df 65 40 97 fb 04 40
       3.2199864 4.2971854 3.591753 2.0778558
0001a0 b2 0e 50 c1 2f b5 10 bf 01 20 57 40 b1 24 11 c0
       -13.003588 -0.56526464 3.3613284 -2.2678645
0001b0 81 eb 24 c0 cf 1f 2d c0 39 ec 15 3e ee 63 75 3f
       -2.576874 -2.7050664 0.14640893 0.95855606
0001c0 09 e6 a7 3f 58 5b b1 3f 37 05 6e bf 5b d5 1d bf
       1.3117076 1.3856001 -0.9297671 -0.6165368
0001d0 69 b9 75 40 b8 49 91 bf de 10 33 bf 8d 2f ef bf
       3.8394415 -1.1350622 -0.6994761 -1.8686386
0001e0 25 79 b4 bf 9a 3e de 3f 64 80 87 bf 08 c1 4d 40
       -1.409947 1.7362854 -1.0586057 3.2149067
0001f0 3f 39 f0 3f fb c3 a2 be cf 6d 33 40 46 0f cf 3e
       1.876747 -0.31790146 2.8035772 0.4044134
000200 1a c5 ca c0 71 44 2b 40 bf f2 d0 3f cf 9e 64 40
       -6.3365602 2.6760523 1.632408 3.572193
000210 04 93 03 c0 9d e5 bc 40 9e e0 31 40 4c c3 ca 3f
       -2.0558481 5.903029 2.7793345 1.584085
000220 0a 3a f3 c0 bf a6 9d bf 73 9e 1f bf 5f 77 bb c0
       -7.600835 -1.2316512 -0.6235115 -5.8583217
000230 8c f1 81 c0 62 c5 b0 bf 4e 94 fb bf 5e a7 eb c0
       -4.0607357 -1.3810236 -1.9654634 -7.3641806
000240 c1 0b 92 3f cb 72 c9 3f 35 e9 57 bf f1 fa 11 bf
       1.1409837 1.5738157 -0.8434022 -0.5702353
000250 9f 40 80 40 1b 7e b5 bf a3 d3 93 be ea 46 0a c0
       4.0078883 -1.4179109 -0.28872404 -2.1605783
000260 63 4f ad bf 75 4b fb 3f 1c 15 0e bf 19 84 79 40
       -1.3539852 1.9632403 -0.5550096 3.8986876
000270 5c 38 1f 40 ee f6 33 bf 3b 71 45 40 eb 2f 6f 3f
       2.487815 -0.7029866 3.085036 0.9343249
000280 83 1f 4c bf 11 a1 08 3f 3a 2a 3d 40 02 d8 0d 40
       -0.79735583 0.5337077 2.9557023 2.216309
000290 e5 06 8c 40 5c 73 ab 3e cf c7 26 3f ca 31 45 3e
       4.3758416 0.3348645 0.65148634 0.19257274
0002a0 3a 0a 5b c1 c8 86 e9 bf 92 c7 ad 40 a4 59 39 40
       -13.689997 -1.8244257 5.4306116 2.8960962
0002b0 ab 69 84 c0 99 38 ac bf dc ae d4 bf b1 15 9f 3f
       -4.137899 -1.3454772 -1.6615863 1.2428495
0002c0 ce 11 86 3e 30 91 87 bf 49 a7 9c 40 85 0f f0 3f
       0.2618546 -1.0591183 4.8954206 1.8754736
0002d0 ec 27 2b 40 35 eb 32 bf b4 e7 8a 40 32 fe 16 3f
       2.6743116 -0.6989015 4.340784 0.5898162
0002e0 3d 2b 21 c1 6f 1d b9 3f d7 dd c0 40 1a 97 8b 40
       -10.073056 1.4462107 6.02708 4.362195
0002f0 fd 5e 96 be 59 12 3f c0 e6 dc 8a bf 17 14 10 40
       -0.29369345 -2.9854949 -1.0848663 2.2512262
000300 95 7b 8a c0 f5 03 35 40 13 59 3e 40 64 44 79 40
       -4.3275857 2.8283665 2.9741867 3.8947992
000310 0c 54 91 3f 99 ec 8a 40 ab 92 10 3f 4a 45 f5 3f
       1.1353774 4.3413815 0.564738 1.916177
000320 a4 1d b5 c1 24 a3 85 c0 50 7e 91 40 75 3c 9f bf
       -22.639473 -4.1761646 4.546669 -1.2440325
000330 a0 91 73 c0 12 79 eb bf a6 33 03 c0 82 af c3 be
       -3.8057632 -1.8396323 -2.0500274 -0.3821984
000340 0d 0d a0 bf 5f d3 5c c0 08 6e 3e bc 19 6f 4b 3d
       -1.2503983 -3.450401 -0.011622913 0.049666498
000350 b3 03 96 40 c0 45 7a 40 99 7e 35 40 41 17 c6 3f
       4.6879516 3.9105072 2.835852 1.5475847
000360 30 c4 dd c0 8e a4 02 c0 a8 d9 63 40 aa b4 36 3f
       -6.9301987 -2.0412936 3.5601597 0.7136942
000370 b1 20 67 c0 66 6c f8 bf 91 40 7d 3f aa e2 df 3f
       -3.6113703 -1.940808 0.98926646 1.7491047
000380 cc 9c 64 c0 ac 0f 86 c0 7e e8 8a be 37 50 97 be
       -3.5720701 -4.189413 -0.27130502 -0.29553387
000390 6e 3d 2d 3f 35 2f b6 40 2c 6f 1e 40 30 39 d8 3f
       0.6767186 5.6932626 2.4755354 1.6892452
0003a0 38 4f 13 c1 bf 28 5b c0 9a b7 e5 3f 42 e4 62 c0
       -9.2068405 -3.424362 1.7946656 -3.5451818
0003b0 d3 05 3a 3f 07 2e bf bf f8 9a 27 3f ac 05 38 40
       0.7266514 -1.4935921 0.6547084 2.8753462
0003c0 13 6b 6e c0 1e 30 51 c0 db 97 01 40 10 9a 52 3f
       -3.7252853 -3.2685618 2.0248935 0.8226633
0003d0 ad e7 55 40 9d 9c 45 40 e3 4f ba 40 ca 98 cf 3f
       3.3422654 3.087684 5.822252 1.6218503
0003e0 72 59 ba c0 40 49 88 3e 70 e4 4d 40 f3 ee 1b bf
       -5.8234186 0.26618385 3.2170677 -0.6091148
0003f0 2b 23 94 3e da 1f 38 c0 69 ab 71 be 9d 84 df 3f
       0.2893308 -2.876944 -0.23600544 1.7462345

Add_3;convolution_4;depthwise;Const_11 f4 [16]
000000 32 66 e3 3d f9 78 41 be 77 e4 be bd a6 7e 33 3f
       0.111034766 -0.18893804 -0.0932092 0.70115125
000010 fd 11 c3 3e b6 66 ee 3c af 4f c3 3d a5 0f 3a bd
       0.3809966 0.02910171 0.09536683 -0.045425076
000020 44 6f db 3c 3e b9 95 be 2a 5f b2 be ae cd 68 be
       0.026786454 -0.2924289 -0.3483823 -0.2273471
000030 4a 45 9c 3d 10 55 7a bd 6c 98 c7 bd 0d 3d 94 3e
       0.07630403 -0.06111628 -0.09745869 0.28952828

Add_5;convolution_4;depthwise_1;Const_15 f4 [16]
000000 7a 2a 77 be 47 21 8d 3c cb da 5b 3e ac 02 25 be
       -0.24137297 0.017227782 0.21470182 -0.161143
000010 2d bd 57 be 53 f9 2f 3e f3 fb 78 be d4 0c 4c 3e
       -0.21068259 0.17184953 -0.24314861 0.19926769
000020 c6 27 8c be 11 dd 64 be 2f 4c 86 3e 54 76 23 bc
       -0.27374095 -0.22349955 0.26229998 -0.009976942
000030 cd d0 b5 3d 87 1c b8 be 6d b3 99 3e fc e7 7e be
       0.08877716 -0.35959265 0.30019704 -0.24893183

Add_7;convolution_4;depthwise_2;Const_19 f4 [16]
000000 bc 74 a3 be ec b7 78 be 00 6d 98 bc c8 ca 4f be
       -0.31925 -0.2428891 -0.018606663 -0.20292199
000010 e9 a1 69 3e d2 97 84 3e 0b 64 36 3e 43 93 b3 3d
       0.2281567 0.2589708 0.17811601 0.08768322
000020 ac dd 31 be 6c f5 3b be 89 b7 02 be b2 b7 c7 3e
       -0.17369717 -0.1835534 -0.12765326 0.39007336
000030 38 fd d7 3d 1e 06 06 bd 8b bb 87 be 29 b8 1d bd
       0.105463445 -0.032720678 -0.2651027 -0.038505707
